cnn_model.onnx (onnx, 331741 bytes, 20 tensors)

classifier.1.weight f4 [128, 64]
0.04243795 0.027822869 0.04771458 -0.0704035 0.060851783 0.059829377 0.09158153 -0.0124972705
-0.085868336 -0.0566656 -0.1295637 0.03141168 -0.097729035 -0.100860834 0.17887935 0.016982151
0.081497796 -0.26467046 0.19035044 -0.021701833 -0.06686312 0.039715942 -0.120629825 0.018208653
0.008299578 -0.102724575 0.042323384 -0.117436245 0.09730435 -0.04297837 -0.23473836 -0.04549284
-0.038662586 -0.106562585 -0.01824258 0.031398203 -0.14060931 0.06325875 -0.13617972 0.087659046
-0.15503503 0.061181325 0.1046167 0.11838126 -0.13462526 -0.0019461723 0.03928817 -0.06670066
-0.08715415 -0.051665545 0.09490999 -0.04588723 0.029365463 -0.070814446 -0.00912424 -0.12881513
0.09480036 0.078681774 -0.07259729 -0.1360832 -0.1569163 -0.0026342147 -0.050102226 -0.15997398
0.057992518 -0.2082038 0.15794848 -0.2137547 -0.024000742 0.035341334 0.03609945 -0.06849797
-0.028626902 0.094984174 -0.10846881 -0.09576453 0.13955787 0.14324053 0.17989483 0.06740072
0.11343331 0.019178865 -0.08882464 0.04899724 0.07609624 -0.058054477 -0.012809716 -0.005946984
-0.18484747 0.10861682 -0.051549256 0.14346036 0.043756355 -0.05998248 -0.0037163144 0.0013811813
-0.090232834 0.11014032 0.10099813 -0.022930546 0.093765475 -0.089914866 -0.05329916 0.08596724
0.021899655 0.052456573 -0.06299922 -0.09212857 -0.0011281939 -0.022587284 -0.23490572 0.08187125
-0.15675354 0.036302745 0.037047084 0.022123253 0.1085165 -0.025045827 0.15227276 0.0769225
0.087849565 -0.0082879495 0.09496567 -0.018169546 0.047767907 0.14419018 -0.045954585 0.00071596017
-0.11747158 0.097327165 0.058514565 -0.026208023 -0.16017278 -0.13117266 -0.03926904 0.10254649
0.14244522 -0.09632638 0.10158242 -0.21136221 0.0063622016 -0.06891488 0.10470786 -0.033289514
-0.18097597 0.024462868 0.01387412 0.05147961 -0.17399316 -0.07517689 0.047659993 0.124276
0.046253998 -0.09215003 0.16999954 -0.015602496 0.017245626 -0.02031205 -0.07538784 -0.1329084
0.03467704 -0.11908809 0.029739382 -0.09715908 -0.02946722 -0.04845294 0.06846059 -0.17915726
-0.099704586 -0.12347939 0.10098953 0.09913847 0.031815693 -0.049698867 0.060441382 0.013165713
-0.03615186 0.039346237 -0.07922272 0.010723736 0.037627432 -0.008029065 -0.057582688 0.0020963692
-0.008510035 0.14257333 0.09806966 -0.054668743 -0.06116706 0.1431324 -0.009114516 -0.13742088
0.16273409 -0.031066474 0.10926292 0.018313678 -0.01096366 0.09167513 -0.17797935 0.042568758
0.03269458 -0.017091805 0.038285285 -0.072375424 0.07305441 0.094222635 -0.13042097 -0.15699492
-0.106456086 0.08015336 -0.07896354 0.10436952 0.074237 -0.09760454 0.0356271 -0.048318308
-0.09264168 0.048757005 -0.140972 0.008048143 -0.097767845 -0.06562195 0.17427903 -0.14238036
-0.044103198 -0.03304904 -0.047335308 -0.11639126 0.11678821 -0.012663062 -0.06573633 0.05538339
0.060428075 -0.08820095 -0.08216412 -0.072869785 0.105251946 0.036864813 -0.0439776 0.016451994
0.046342798 0.04560602 -0.12500924 -0.009666883 -0.13805355 -0.05994077 0.1061492 -0.033716608
-0.11504269 -0.063959345 0.03704076 0.009706731 0.095588654 -0.018365262 0.24022184 -0.04706508
00000000: 6ad3 2d3d c9ec e33c 5d70 433d b62f 90bd
00000010: b83f 793d a60f 753d 198f bb3d 5ac1 4cbc
00000020: bddb afbd 301a 68bd 59ac 04be 89a9 003d
00000030: 2926 c8bd 2090 cebd 262c 373e 271e 8b3c
00000040: 51e8 a63d e382 87be 3aeb 423e 0bc8 b1bc
00000050: 88ef 88bd 2fad 223d c50c f7bd 502a 953c
00000060: f4fa 073c 4361 d2bd 495b 2d3d 6a82 f0bd
00000070: 8147 c73d 160a 30bd 415f 70be b356 3abd
00000080: a95c 1ebd 7c3d dabd 7771 95bc 679b 003d
00000090: e3fb 0fbe ce8d 813d b272 0bbe 9686 b33d
000000a0: 81c1 1ebe 4599 7a3d 4841 d63d e071 f23d
000000b0: 34db 09be b516 ffba a2ec 203d 5b9a 88bd
000000c0: e07d b2bd 409f 53bd 2b60 c23d 40f4 3bbd
000000d0: d78f f03c 2a07 91bd d67d 15bc 1de8 03be
000000e0: b126 c23d e923 a13d e3ad 94bd 6559 0bbe
000000f0: abae 20be caa2 2cbb fe37 4dbd 38d0 23be
00000100: 9089 6d3d 6033 55be 3fbd 213e 83e2 5abe
00000110: 349d c4bc 13c2 103d 04dd 133d aa48 8cbd
00000120: f782 eabc 1087 c23d e524 debd 3220 c4bd
00000130: 42e8 0e3e a5ad 123e 5a36 383e 6409 8a3d
00000140: b94f e83d ff1c 9d3c b1e9 b5bd 54b1 483d
00000150: 58d8 9b3d 88ca 6dbd d8df 51bc ebde c2bb
00000160: a848 3dbe 7f72 de3d 5025 53bd 46e7 123e
00000170: dd39 333d 30b0 75bd 698d 73bb c108 b53a
00000180: fecb b8bd 4091 e13d 1cd8 ce3d d7d8 bbbc
00000190: 1d08 c03d 4925 b8bd 3850 5abd 980f b03d
000001a0: e866 b33c b4dc 563d bc05 81bd e7ad bcbd
000001b0: e8df 93ba f808 b9bc 208b 70be 1dac a73d
000001c0: 0084 20be 30b2 143d afbe 173d d33b b53c
000001d0: e63d de3d e82c cdbc 64ed 1b3e 8b89 9d3d
000001e0: 79ea b33d 2eca 07bc 5c7d c23d 4dd8 94bc
000001f0: 48a8 433d 97a6 133e e03a 3cbd 46af 3b3a
00000200: f194 f0bd 7753 c73d f8ac 6f3d 35b2 d6bc
00000210: 5504 24be 2052 06be 93d8 20bd e503 d23d
00000220: 29dd 113e c446 c5bd 720a d03d 566f 58be
00000230: 047a d03b 3f23 8dbd 1371 d63d 965a 08bd
00000240: c451 39be 5a66 c83c 4750 633c 49dc 523d
00000250: 432b 32be 57f6 99bd 2037 433d 6a84 fe3d
00000260: d574 3d3d 28b9 bcbd 5c14 2e3e 9da1 7fbc
00000270: b346 8d3c 7565 a6bc f164 9abd 2419 08be
00000280: 8309 0e3d 75e4 f3bd 01a0 f33c 57fb c6bd
00000290: 3d65 f1bc 9776 46bd 1135 8c3d 0075 37be
000002a0: eb31 ccbd c3e2 fcbd 99d3 ce3d 1c09 cb3d
000002b0: 2c51 023d 0a91 4bbd 6291 773d 01b5 573c
000002c0: f913 14bd 8529 213d 853f a2bd 9cb2 2f3c
000002d0: 391f 1a3d 578c 03bc d3db 6bbd 3d63 093b
000002e0: ad6d 0bbc befe 113e bfd8 c83d 55ec 5fbd
000002f0: 508a 7abd 4d91 123e 0d55 15bc 0fb8 0cbe
00000300: c4a3 263e 1e7f febc 3dc5 df3d 9106 963c
00000310: eca0 33bc 2cc0 bb3d 3840 36be 945c 2e3d
00000320: c0ea 053d 1d04 8cbc 08d1 1c3d 9139 94bd
00000330: 8d9d 953d ccf7 c03d 138d 05be 47c3 20be
00000340: a605 dabd 7227 a43d a3b7 a1bd b0bf d53d
00000350: 9109 983d e4e4 c7bd b9ed 113d 6be9 45bd
00000360: ecba bdbd 6db5 473d f75a 10be 5cdc 033c
00000370: 823a c8bd cd64 86bd 3476 323e 28cc 11be
00000380: 8ea5 34bd 6e5e 07bd abe2 41bd 8a5e eebd
00000390: a82e ef3d bb78 4fbc c5a0 86bd b2d9 623d
000003a0: 6e83 773d b3a2 b4bd aa45 a8bd c13c 95bd
000003b0: 558e d73d 8fff 163d db21 34bd 55c6 863c
000003c0: f2d1 3d3d 61cd 3a3d 6c02 00be d961 1ebc
000003d0: e95d 0dbe 7484 75bd c064 d93d 6d1a 0abd
000003e0: 809b ebbd 1efd 82bd 0db8 173d fb08 1f3c
000003f0: fcc3 c33d bf72 96bc b7fc 753e 50c7 40bd

classifier.1.bias f4 [128]
-0.028364416 0.048945356 -0.042731415 0.07381434 0.10495599 -0.061619736 0.0928103 -0.106287025
-0.010021745 0.1060501 -0.031196415 0.04354223 0.07892683 -0.01757906 0.090731524 -0.028234234
-0.00888488 -0.061779313 0.044241842 0.0967712 0.02330613 -0.071135 0.049982827 -0.015251744
0.09950949 -0.055987917 -0.0030301642 0.0683351 0.00021356119 -0.038246356 -0.08688642 0.036011275
0.04578076 -0.018317197 -0.02783382 0.07430079 -0.048850227 0.1127232 -0.08276299 0.044997323
0.09422122 0.041263893 -0.011525199 0.020118259 -0.020563956 0.00997188 0.0067472793 0.04321828
0.08728611 -0.024315683 0.111816555 0.021523787 0.109378986 0.019118382 0.11926546 -0.06200002
0.045781262 -0.029954419 0.09204827 -0.013186535 -0.09425935 0.017416956 -0.0056086867 0.019111618
0.016553372 0.015948655 0.11132515 0.012852753 0.01018491 -0.04104318 -0.0087399855 -0.015163417
0.011621555 -0.07443067 -0.059095975 0.051573597 0.03980606 0.09542926 -0.104086086 -0.104009315
-0.116751745 -0.07227627 0.038437717 -0.10403581 -0.03058632 0.11465374 0.090444155 -0.02359829
0.010697707 0.02266035 -0.021263113 -0.086984135 0.029757626 0.07613593 0.10957198 -0.04020466
-0.05891742 -0.11337273 0.026047181 -0.0057740407 -0.12157682 -0.010913996 0.036593784 -0.006026
-0.041561652 -0.07410249 -0.11426282 -0.011007429 0.011091365 -0.02987911 -0.07661125 0.08309437
0.036187965 -0.08394485 -0.10564123 -0.008214097 0.016681682 0.07128892 0.048803885 0.08209194
-0.0046342015 0.012929867 0.075428315 0.021543982 0.08014809 0.05213928 -0.05303455 0.055832576
00000000: 7e5c e8bc ed7a 483d 2307 2fbd f92b 973d
00000010: 2bf3 d63d fa64 7cbd 5413 be3d 03ad d9bd
00000020: 3f32 24bc cb30 d93d a08f ffbc 5659 323d
00000030: 64a4 a13d f601 90bc 73d1 b93d 7b4b e7bc
00000040: e391 11bc 4e0c 7dbd ef36 353d fb2f c63d
00000050: 7fec be3c 3aaf 91bd cbba 4c3d 73e2 79bc
00000060: a2cb cb3d 9653 65bd b895 46bb 46f3 8b3d
00000070: 65ef 5f39 36a8 1cbd 82f1 b1bd 8f80 133d
00000080: 9b84 3b3d f20d 96bc c003 e4bc 032b 983d
00000090: 2d17 48bd 6cdb e63d a47f a9bd 1d4f 383d
000000a0: 0ef7 c03d 5404 293d 30d4 3cbc 0ccf a43c
000000b0: be75 a8bc 1961 233c 4818 dd3b a705 313d
000000c0: 0fc3 b23d af31 c7bc 1400 e53d a752 b03c
000000d0: 1702 e03d 279e 9c3c 7341 f43d bcf3 7dbd
000000e0: 2285 3b3d f862 f5bc ce83 bc3d 560c 58bc
000000f0: 0c0b c1bd 01ae 8e3c 13c9 b7bb f88f 9c3c
00000100: f09a 873c c1a6 823c 71fe e33d 5a94 523c
00000110: 9cde 263c e51c 28bd 2832 0fbc fb6f 78bc
00000120: 5668 3e3c 1b6f 98bd 9f0e 72bd d63e 533d
00000130: ae0b 233d 6a70 c33d 162b d5bd d602 d5bd
00000140: 8a1b efbd 9505 94bd de70 1d3d ba10 d5bd
00000150: 2a90 fabc 94cf ea3d c93a b93d 3351 c1bc
00000160: 6f45 2f3c 33a2 b93c fb2f aebc bd24 b2bd
00000170: 44c6 f33c 28ed 9b3d 4667 e03d a4ad 24bd
00000180: 6553 71bd f62f e8bd e660 d53c 2a34 bdbb
00000190: 45fd f8bd 9ed0 32bc 5de3 153d c075 c5bb
000001a0: 8d3c 2abd 0cc3 97bd a002 eabd 8158 34bc
000001b0: 8eb8 353c 09c5 f4bc 5ce6 9cbd 622d aa3d
000001c0: d539 143d 47eb abbd 6e5a d8bd 6b94 06bc
000001d0: 06a8 883c edff 913d 95e6 473d d21f a83d
000001e0: 80da 97bb cbd7 533c 297a 9a3d 017d b03c
000001f0: af24 a43d ff8f 553d c23a 59bd b3b0 643d

classifier.2.weight f4 [128]
1.2962579 1.2110684 1.2134347 1.2673566 1.2519469 1.2912778 1.2185692 1.2507145
1.218543 1.1224005 1.1944368 1.1279879 1.2628019 1.1280631 1.2454873 1.1662164
1.2350208 1.2220404 1.2334235 1.2566342 1.2387136 1.2627703 1.2256368 1.2288368
1.3191689 1.2578163 1.1944398 1.2657644 1.2300488 1.2167668 1.1898037 1.2842349
1.2062773 1.2494367 1.17306 1.2594526 1.1835848 1.3034317 1.3126254 1.3363658
1.3690712 1.2835599 1.2801539 1.2201315 1.1898079 1.1971396 1.2386371 1.2223586
1.2293403 1.2753057 1.2225572 1.3731642 1.327548 1.1663992 1.2458088 1.1775858
1.3173561 1.247466 1.1672037 1.251972 1.3015348 1.2194425 1.3154212 1.1738491
1.1631442 1.2090948 1.3140398 1.2222477 1.1100678 1.3103963 1.3376904 1.3410509
1.3279028 1.1834139 1.2033207 1.2526783 1.2604595 1.2517053 1.2608762 1.3618239
1.1757386 1.1893941 1.2879306 1.2489092 1.1594013 1.2725837 1.2705809 1.2421373
1.1492684 1.1998129 1.310865 1.2771078 1.2302142 1.1561123 1.2588328 1.1950799
1.2850342 1.2733867 1.2373096 1.3038783 1.1517835 1.234303 1.2006131 1.2264245
1.331999 1.2174369 1.1590693 1.2630881 1.1870131 1.2766569 1.252536 1.3101815
1.4073046 1.1324433 1.2683449 1.128425 1.266579 1.1567682 1.2441727 1.30785
1.16295 1.297873 1.2396938 1.2326669 1.2978243 1.1616539 1.2971025 1.1865349
00000000: c7eb a53f 4a04 9b3f d451 9b3f be38 a23f
00000010: cc3f a03f 9748 a53f 13fa 9b3f 6a17 a03f
00000020: 38f9 9b3f d2aa 8f3f 4ee3 983f e861 903f
00000030: 7ea3 a13f 5f64 903f 216c 9f3f 9446 953f
00000040: 2915 9e3f d26b 9c3f d2e0 9d3f 64d9 a03f
00000050: 2b8e 9e3f 75a2 a13f abe1 9c3f 864a 9d3f
00000060: 87da a83f 2000 a13f 67e3 983f 9104 a23f
00000070: 3d72 9d3f 04bf 9b3f 7d4b 983f cf61 a43f
00000080: 4b67 9a3f 8bed 9f3f d526 963f be35 a13f
00000090: b57f 973f dad6 a63f 1c04 a83f 090e ab3f
000000a0: ba3d af3f b14b a43f 15dc a33f 452d 9c3f
000000b0: a04b 983f df3b 993f a98b 9e3f 3f76 9c3f
000000c0: 065b 9d3f 383d a33f c17c 9c3f d8c3 af3f
000000d0: 18ed a93f 924c 953f aa76 9f3f 22bb 963f
000000e0: 209f a83f f7ac 9f3f ee66 953f 9e40 a03f
000000f0: b198 a63f b116 9c3f b95f a83f b040 963f
00000100: e9e1 943f 9ec3 9a3f 7532 a83f 9d72 9c3f
00000110: b416 8e3f 11bb a73f 7039 ab3f 8ea7 ab3f
00000120: b8f8 a93f 1b7a 973f 6a06 9a3f c357 a03f
00000130: bd56 a13f e137 a03f 6464 a13f 3f50 ae3f
00000140: 9a7e 963f 113e 983f e9da a43f 42dc 9f3f
00000150: 4367 943f 06e4 a23f 65a2 a23f 5bfe 9e3f
00000160: 3a1b 933f 7893 993f 6dca a73f 4578 a33f
00000170: a977 9d3f 7dfb 933f 6f21 a13f 61f8 983f
00000180: 007c a43f 56fe a23f 2960 9e3f 7ce5 a63f
00000190: a46d 933f a4fd 9d3f b1ad 993f 7afb 9c3f
000001a0: f17e aa3f f9d4 9b3f 625c 943f dfac a13f
000001b0: 0cf0 973f 7e69 a33f 1a53 a03f 07b4 a73f
000001c0: 8f22 b43f e7f3 903f 2059 a23f 3b70 903f
000001d0: 431f a23f fb10 943f 0d41 9f3f a167 a73f
000001e0: 8cdb 943f b420 a63f 49ae 9e3f 07c8 9d3f
000001f0: 1b1f a63f 13b1 943f 7407 a63f 60e0 973f

classifier.2.bias f4 [128]
0.24043328 0.18811992 0.06041851 0.10893679 0.12993748 0.07696374 0.26082918 0.11331856
0.13537398 0.042315092 0.037074666 0.06859241 0.13128357 0.057057716 0.2377345 0.011922268
0.12617847 0.10298652 0.20399953 0.15093789 0.057154845 0.09904133 0.15050086 0.07589702
0.15193385 0.10056745 0.122678034 0.091989964 0.13573045 0.049589857 0.032722503 0.10425174
0.1411453 0.06723693 -0.041693836 0.101819724 0.15093532 0.23731574 0.149443 0.13801755
0.12030823 0.13780457 0.086647004 0.04769013 0.0035250527 0.15198013 0.13158897 0.17941432
0.107145056 0.23897012 0.14991139 0.268465 0.13443187 0.19046058 0.0940671 0.05230361
0.11981138 0.08546177 0.046862014 0.05313473 0.20987506 0.20587598 0.089414634 0.14106338
0.09861658 0.019668799 0.09977155 0.19403544 -0.014762949 0.1463817 0.15970981 0.059962183
0.14202876 0.12536159 0.13008854 0.13183218 0.18664154 0.050391342 0.11342322 0.22142805
0.08265906 0.07595145 0.17345914 0.13723819 0.055373963 0.11667204 0.2340975 0.118353404
-0.001679334 0.21415825 0.08619923 0.19731437 0.091625884 0.15635885 0.03364453 0.15573315
0.13250868 0.12908481 0.20550711 0.097237244 0.10832553 0.11359289 0.06391639 0.1736539
0.16382433 0.12304122 0.29878023 0.10542315 0.05643731 0.0907835 0.06618985 0.18655969
0.13002065 0.04973846 0.08800586 0.16064413 0.062998936 0.12465021 0.0680433 0.23868258
0.2410223 0.22642753 0.07232111 0.16008401 0.20727882 0.02401901 0.17140399 0.0641938
00000000: 2434 763e 82a2 403e 6679 773d 401a df3d
00000010: 550e 053e 2a9f 9d3d 678b 853e 9013 e83d
00000020: 7a9f 0a3e 9752 2d3d 9bdb 173d 2d7a 8c3d
00000030: 336f 063e 5ab5 693d ac70 733e 9e55 433c
00000040: ee34 013e 99ea d23d 41e5 503e 768f 1a3e
00000050: 331b 6a3d 2ed6 ca3d e61c 1a3e e66f 9b3d
00000060: 8c94 1b3e 4ff6 cd3d 9f3e fb3d 3c65 bc3d
00000070: ecfc 0a3e bc1e 4b3d 0808 063d f081 d53d
00000080: 6588 103e 84b3 893d 28c7 2abd dc86 d03d
00000090: ca8e 1a3e e602 733e 9607 193e 7954 0d3e
000000a0: 2964 f63d a41c 0d3e fc73 b13d ba56 433d
000000b0: 9204 673b aea0 1b3e 42bf 063e 63b8 373e
000000c0: de6e db3d 95b4 743e 5f82 193e 3f74 893e
000000d0: 82a8 093e 1908 433e 40a6 c03d 4f3c 563d
000000e0: ab5f f53d 9506 af3d 62f2 3f3d cda3 593d
000000f0: 7de9 563e 27d1 523e 051f b73d eb72 103e
00000100: 7df7 c93d 7620 a13c 0755 cc3d 3ab1 463e
00000110: 4ce0 71bc 16e5 153e f88a 233e e89a 753d
00000120: fd6f 113e ca5e 003e ee35 053e 04ff 063e
00000130: f61e 3f3e 2767 4e3d 6f4a e83d 09be 623e
00000140: 2749 a93d 6f8c 9b3d 469f 313e 2b88 0c3e
00000150: cfcf 623d c0f1 ee3d 41b7 6f3e 4563 f23d
00000160: 191d dcba 4d4c 5b3e 3989 b03d c70c 4a3e
00000170: 5aa6 bb3d 891c 203e d9ce 093d 8378 1f3e
00000180: 5bb0 073e cf2e 043e 7570 523e 5224 c73d
00000190: c7d9 dd3d 64a3 e83d 99e6 823d 54d2 313e
000001a0: 91c1 273e 09fd fb3d b9f9 983e 18e8 d73d
000001b0: cf2a 673d b3ec b93d 8b8e 873d 8109 3f3e
000001c0: 2224 053e 8eba 4b3d 6b3c b43d e57f 243e
000001d0: 9605 813d 9c48 ff3d 495a 8b3d 3569 743e
000001e0: 8dce 763e 9edc 673e 171d 943d 10ed 233e
000001f0: e640 543e 84c3 c43c 8784 2f3e 0a78 833d

classifier.2.running_mean f4 [128]
-0.19262134 0.1259918 -0.09521944 -0.011653764 -0.08839469 -0.2013749 0.02324177 -0.11663417
-0.009912977 0.13533519 -0.18050797 -0.12537995 0.06962994 -0.024619441 0.20650454 -0.05215081
0.005480657 -0.10038732 0.08654409 0.016424038 -0.038017064 -0.11947992 0.05678009 -0.108101346
0.12872806 -0.14450492 -0.07147497 0.08487276 -0.013826867 -0.0038583726 -0.15792148 -0.042086683
-0.0036647478 -0.19057389 -0.14883289 -0.0606252 -0.0049574287 0.051005423 -0.19752371 0.07427756
-0.059318762 -0.08016421 -0.09194332 -0.15441132 -0.10048472 -0.044752695 0.043625977 0.09334811
-0.07629442 -0.110597394 -0.058867764 0.060257763 0.062055152 0.0336829 0.007834257 -0.12070731
0.039943017 -0.10644172 0.0060555423 -0.12588155 -0.08785214 0.028365936 -0.01138489 0.0141317025
-0.11097654 -0.086633995 0.11593829 0.078189895 0.028700944 -0.114227116 -0.10465772 -0.164364
-0.10603658 -0.1606075 -0.22920679 -0.019970762 -0.064032465 0.02396763 -0.12948442 -0.18629432
-0.28953472 -0.06198051 0.056526173 -0.074487016 0.11310525 0.13309093 0.1547034 -0.18372661
-0.07428736 -0.050710212 -0.04986125 -0.1015786 0.0725086 0.16009413 0.16512625 0.027900072
-0.1445295 -0.09063972 -0.04501393 -0.05121917 -0.1268519 0.047642764 0.17929806 0.02590883
-0.024673808 -0.113106504 -0.00017796285 -0.094545476 0.076369576 -0.07541883 -0.16342863 0.0467682
-0.18920748 -0.19605987 -0.12908283 -0.071604006 -0.08565255 0.011561979 -0.08076973 0.050999317
0.07397937 0.104002796 -0.034644093 0.008524958 0.16439497 -0.12119533 -0.13828056 -0.055516895
00000000: 873e 45be ff03 013e 6902 c3bd 6eef 3ebc
00000010: 4608 b5bd 3935 4ebe 8665 be3c e5dd eebd
00000020: 0a6a 22bc 4f95 0a3e 15d7 38be 9a63 00be
00000030: 249a 8e3d b6ae c9bc ed75 533e 169c 55bd
00000040: 1597 b33b de97 cdbd 073e b13d b48b 863c
00000050: c8b7 1bbd e3b1 f4bd 3d92 683d 3d64 ddbd
00000060: 4ad1 033e 19f9 13be 7861 92bd c5d1 ad3d
00000070: 158a 62bc c0dc 7cbb 2bb6 21be 1663 2cbd
00000080: 442c 70bb cd25 43be a667 18be 2152 78bd
00000090: ed71 a2bb 10eb 503d a843 4abe d51e 983d
000000a0: 3bf8 72bd 222d a4bd c84c bcbd 001e 1ebe
000000b0: efca cdbd 9a4e 37bd 27b1 323d 4b2d bf3d
000000c0: 4040 9cbd e380 e2bd 531f 71bd d8d0 763d
000000d0: 8b2d 7e3d 15f7 093d 415b 003c 6535 f7bd
000000e0: 4a9b 233d 1efe d9bd 926d c63b 18e7 00be
000000f0: d3eb b3bd ae5f e83c b187 3abc a888 673c
00000100: ab47 e3bd 2a6d b1bd 0e71 ed3d 0622 a03d
00000110: 3e1e eb3c e8ef e9bd c956 d6bd 094f 28be
00000120: b529 d9bd 4b76 24be 2fb5 6abe b999 a3bc
00000130: 7423 83bd c357 c43c 9097 04be f0c3 3ebe
00000140: e53d 94be 46df 7dbd fd87 673d a68c 98bd
00000150: baa3 e73d fd48 083e 916a 1e3e d422 3cbe
00000160: f923 98bd 83b5 4fbd 4f3b 4cbd 7108 d0bd
00000170: 647f 943d b7ef 233e db16 293e b18e e43c
00000180: 8bff 13be 51a1 b9bd 8760 38bd 31cb 51bd
00000190: 77e5 01be 0f25 433d e999 373e c13e d43c
000001a0: ba20 cabc 62a4 e7bd 8a9b 3ab9 0fa1 c1bd
000001b0: a767 9c3d 3075 9abd d659 27be 0390 3f3d
000001c0: 9bbf 41be ebc3 48be 4a2e 04be 1fa5 92bd
000001d0: 9b6a afbd 746e 3d3c 9a6a a5bd a9e4 503d
000001e0: 7f82 973d 6bff d43d f7e6 0dbd 44ac 0b3c
000001f0: 2857 283e 4235 f8bd 6b99 0dbe af65 63bd

classifier.2.running_var f4 [128]
0.033483684 0.047626138 0.03370071 0.031761076 0.060115937 0.026644342 0.028875751 0.02952067
0.030891223 0.038152758 0.057983454 0.026671493 0.046145327 0.030426593 0.038428802 0.040952075
0.038997933 0.030897744 0.042394664 0.031115914 0.041561395 0.02840099 0.028690195 0.027072396
0.039889872 0.037772987 0.040856767 0.029390017 0.034210186 0.04160163 0.02199482 0.02542372
0.041673005 0.037892994 0.02762831 0.043192983 0.047119994 0.03882549 0.04384212 0.03723516
0.052158885 0.037584864 0.05683087 0.03216408 0.042845033 0.04116253 0.039500237 0.03438777
0.03290216 0.045993306 0.060673643 0.048576582 0.045532312 0.03279846 0.037582885 0.026897945
0.031530812 0.048584666 0.021522397 0.038260948 0.03517349 0.0327689 0.041526824 0.026379181
0.040870886 0.047231417 0.032163817 0.03400644 0.024449915 0.039394867 0.03505573 0.03642238
0.053878207 0.042762935 0.0382353 0.036099337 0.038349733 0.037117597 0.039469704 0.044381194
0.047615975 0.033725504 0.03856223 0.03598388 0.030761478 0.03241492 0.030110667 0.03799594
0.049719535 0.032558613 0.047541346 0.05511822 0.03257924 0.031142667 0.02898251 0.035723794
0.062022034 0.01819442 0.034207266 0.036030635 0.03243193 0.03874702 0.030304944 0.049419362
0.03969242 0.049189862 0.059994277 0.0422348 0.040201772 0.044680644 0.024152895 0.03931823
0.036936197 0.04101341 0.039437562 0.04100801 0.04202712 0.02269754 0.033322826 0.029042065
0.03847409 0.041782286 0.06919255 0.03898273 0.033821292 0.034055464 0.028893141 0.029174984
00000000: 3026 093d a013 433d c109 0a3d e717 023d
00000010: 213c 763d 3c45 da3c d78c ec3c 55d5 f13c
00000020: 970f fd3c 1146 1c3d 0f80 6d3d 2d7e da3c
00000030: e202 3d3d 3141 f93c 8567 1d3d 5dbd 273d
00000040: 4cbc 1f3d 441d fd3c 07a6 2d3d cde6 fe3c
00000050: 483c 2a3d 31a9 e83c b307 eb3c eec6 dd3c
00000060: 9063 233d d9b7 1a3d 6d59 273d 55c3 f03c
00000070: fb1f 0c3d 7966 2a3d 7b2e b43c 6845 d03c
00000080: 50b1 2a3d af35 1b3d c454 e23c 20eb 303d
00000090: e500 413d 7a07 1f3d cb93 333d e583 183d
000000a0: 8ea4 553d 96f2 193d 7dc7 683d 7bbe 033d
000000b0: 467e 2f3d 0b9a 283d 00cb 213d 31da 0c3d
000000c0: 6ac4 063d 7a63 3c3d ed84 783d 3df8 463d
000000d0: 1780 3a3d ae57 063d 83f0 193d 1459 dc3c
000000e0: 7426 013d b700 473d bd4f b03c 83b7 1c3d
000000f0: 1412 103d af38 063d 0818 2a3d 2719 d83c
00000100: 3b68 273d bb75 413d 35be 033d 564a 0b3d
00000110: 304b c83c 835c 213d 9996 0f3d a22f 153d
00000120: 65af 5c3d 3028 2f3d 9e9c 1c3d e6dc 133d
00000130: 9c14 1d3d 9f08 183d fcaa 213d 0ec9 353d
00000140: f808 433d c123 0a3d 6ef3 1d3d d563 133d
00000150: 7fff fb3c 82c5 043d a5aa f63c a1a1 1b3d
00000160: b6a6 4b3d 2e5c 053d b7ba 423d a5c3 613d
00000170: cf71 053d e81e ff3c bb6c ed3c 1d53 123d
00000180: d10a 7e3d 770c 953c eb1c 0c3d dc94 133d
00000190: 58d7 043d 32b5 1e3d 1342 f83c f56b 4a3d
000001a0: 8594 223d 4f7b 493d 8fbc 753d 66fe 2c3d
000001b0: 9daa 243d 0d03 373d 4bdc c53c 270c 213d
000001c0: 694a 173d adfd 273d 4889 213d 04f8 273d
000001d0: a124 2c3d 31f0 b93c 847d 083d a0e9 ed3c
000001e0: 0297 1d3d e723 2b3d d3b4 8d3d 5bac 1f3d
000001f0: 3288 0a3d be7d 0b3d 4fb1 ec3c 6000 ef3c

classifier.5.weight f4 [10, 128]
-0.25841007 0.13962744 -0.25668022 0.13227616 -0.36631 -0.0030484956 -0.119776525 -0.14800644
0.017912554 -0.14968055 0.0007575491 0.09295497 0.1533526 0.19153214 -0.17268911 -0.12443015
0.04544295 0.19791518 -0.3120648 -0.2976976 0.00034360585 0.16990826 0.21484415 0.10608508
0.032320384 -0.18865307 -0.13434677 -0.260779 0.022415098 -0.169245 -0.14366744 -0.05170409
-0.089917466 0.17062332 0.16749832 0.100741364 -0.107449725 0.19626835 -0.096828036 -0.17535873
-0.33139935 -0.24068224 -0.24993457 -0.21298775 -0.057700247 0.07832605 -0.078178845 -0.0093557695
0.17157145 0.1718527 -0.18332967 0.12142997 0.034740273 0.14727111 -0.12769994 0.17028612
0.062354714 -0.18173729 0.026329763 0.013271568 -0.18705603 -0.15929377 0.09641977 -0.0615392
-0.0553674 -0.14470975 0.15171266 -0.24435937 0.14465599 -0.3431539 0.21571423 -0.27755386
-0.31880206 -0.13083923 -0.116590485 0.06780193 0.1054136 0.066906 -0.1567674 -0.34432578
-0.14130406 -0.17730321 -0.1975872 -0.11244546 -0.20191589 -0.19432858 0.028771045 -0.25205562
-0.18405458 0.18715857 0.1298716 -0.13840623 -0.18295656 -0.10798547 -0.17815395 0.014895327
-0.16563556 -0.19417317 -0.23495431 0.20457125 -0.036069512 0.15885614 -0.047413886 0.13152215
-0.18261814 -0.06257935 -0.14701942 -0.19432713 -0.0024625615 -0.18634336 -0.02465376 0.18019877
-0.26350912 -0.13205685 -0.1648036 0.007735262 0.15673721 0.042896852 0.11441453 0.1806075
0.1533584 0.0701327 -0.14561091 0.120493695 -0.2165185 0.16115281 0.037189078 -0.029509393
-0.039559796 -0.2227204 -0.18263482 0.10640401 0.021313595 0.20510632 -0.32431534 -0.07086171
-0.09070252 -0.15051158 0.124926895 -0.05273095 -0.13790488 -0.07722796 -0.3145979 0.0940758
-0.17671153 0.08194763 -0.2947707 -0.04245403 0.095526 -0.14378805 -0.102248214 -0.28848895
-0.31041387 0.14730784 -0.18612573 -0.06633171 -0.15513286 0.08535158 0.10556485 0.12631881
-0.026433876 0.06561733 0.18933967 0.08078643 -0.23939514 -0.31053096 0.116880916 -0.26837963
0.13264866 0.074900754 0.12848414 0.19247639 0.17336895 0.1358038 -0.22254741 -0.34620497
0.11090833 0.05021676 0.11661967 -0.3329296 0.17925484 -0.2719994 0.120702945 -0.28970405
0.13908823 0.19129425 -0.23883139 0.20781985 -0.044022772 -0.23334102 -0.058416177 -0.26968744
0.2100561 0.18453835 0.060276046 -0.088598005 -0.14455876 -0.13403073 0.023428844 0.12013396
0.15651496 -0.032239653 0.1605038 0.104078814 -0.0599112 0.11513719 -0.046379205 -0.12389138
0.17732237 0.02259646 -0.11501853 -0.35035437 -0.18753284 -0.16951482 -0.27581835 0.18414696
0.17264013 -0.272424 0.1258459 -0.13127266 -0.11639766 -0.21130164 0.13812944 -0.23899272
0.1848409 -0.19602016 0.034742102 0.10598775 -0.30065268 -0.050392598 -0.045728307 -0.063840985
-0.033755653 -0.18274382 -0.25098625 0.08081251 -0.14130309 0.11080478 -0.20561853 -0.09873088
0.12142907 0.17837691 0.012855827 -0.07630631 0.1592394 0.004020709 0.20322226 -0.07578316
-0.15619172 -0.30176154 0.14045288 -0.16745833 -0.13089937 0.09001498 -0.21601637 -0.10817922
00000000: 534e 84be 7ffa 0e3e 976b 83be 6773 073e
00000010: fc8c bbbe 45c9 47bb 654d f5bd 008f 17be
00000020: 59bd 923c dc45 19be 4296 463a 2d5f be3d
00000030: 7708 1d3e 0021 443e 6ad5 30be 3cd5 febd
00000040: 6322 3a3d 47aa 4a3e f5c6 9fbe d26b 98be
00000050: ff25 b439 6efc 2d3e 1b00 5c3e 2243 d93d
00000060: 6162 043d 452e 41be 3392 09be d384 85be
00000070: de9f b73c 904e 2dbe 8f1d 13be abc7 53bd
00000080: a626 b8bd e1b7 2e3e ae84 2b3e 7d51 ce3d
00000090: 9a0e dcbd 92fa 483e c74d c6bd 3d91 33be
000000a0: 2dad a9be 6875 76be d9ee 7fbe 7619 5abe
000000b0: 1857 6cbd 6869 a03d 3b1c a0bd f148 19bc
000000c0: 6db0 2f3e 27fa 2f3e c6ba 3bbe 47b0 f83d
000000d0: d14b 0e3d 3dce 163e c6c3 02be 7c5f 2e3e
000000e0: a867 7f3d 5719 3abe 84b1 d73c fe70 593c
000000f0: 9e8b 3fbe e81d 23be ba77 c53d 8710 7cbd
00000100: edc8 62bd cb2e 14be 905a 1b3e 5839 7abe
00000110: b320 143e deb1 afbe 31e4 5c3e 8a1b 8ebe
00000120: 063a a3be b8fa 05be fec6 eebd bddb 8a3d
00000130: 16e3 d73d 0306 893d a287 20be 784b b0be
00000140: 03b2 10be f98e 35be 4d54 4abe ce49 e6bd
00000150: 0ac3 4ebe 12fe 46be 41b1 eb3c 6f0d 81be
00000160: ce78 3cbe 7fa6 3f3e 10fd 043e 5dba 0dbe
00000170: f758 3bbe 7c27 ddbd fd6d 36be 880b 743c
00000180: 5e9c 29be 55d5 46be dd97 70be 207b 513e
00000190: a0bd 13bd 2fab 223e 1035 42bd bead 063e
000001a0: 4000 3bbe 9a29 80bd 428c 16be b1fd 46be
000001b0: ed62 21bb cbd0 3ebe aff6 c9bc 0786 383e
000001c0: abea 86be e939 07be 46c2 28be 1578 fd3b
000001d0: b87f 203e 9cb4 2f3d 2a52 ea3d 2cf1 383e
000001e0: fc09 1d3e bca1 8f3d 071b 15be 66c5 f63d
000001f0: 07b7 5dbe 3e05 253e 9353 183d afbd f1bc
00000200: 7409 22bd d110 64be 9f04 3bbe 58ea d93d
00000210: d999 ae3c 6407 523e a90c a6be f21f 91bd
00000220: 3ec2 b9bd b51f 1abe acd9 ff3d 69fc 57bd
00000230: f036 0dbe b129 9ebd fa12 a1be d0aa c03d
00000240: def3 34be 29d4 a73d 2fec 96be 47e4 2dbd
00000250: 23a3 c33d 2d3d 13be 8367 d1bd d3b4 93be
00000260: 91ee 9ebe ded7 163e be97 3ebe ebd8 87bd
00000270: 26db 1ebe cfcc ae3d 6232 d83d b859 013e
00000280: db8b d8bc 6162 863d 42e2 413e 5b73 a53d
00000290: 0024 75be eafd 9ebe 435f ef3d 0e69 89be
000002a0: 0dd5 073e 9165 993d 5991 033e 8818 453e
000002b0: a187 313e 2710 0b3e 78e3 63be c741 b1be
000002c0: e823 e33d 17b0 4d3d 4bd6 ee3d c075 aabe
000002d0: 958e 373e 8143 8bbe 1b33 f73d 1754 94be
000002e0: 256d 0e3e a4e2 433e 3790 74be bace 543e
000002f0: 3951 34bd f3f0 6ebe cd45 6fbd 7914 8abe
00000300: f218 573e 9ff7 3c3e 04e4 763d df72 b5bd
00000310: 3607 14be 5a3f 09be d9ed bf3c cb08 f63d
00000320: 7545 203e ba0d 04bd 1c5b 243e 4627 d53d
00000330: 7265 75bd 0ccd eb3d 1ff8 3dbd c4ba fdbd
00000340: ff93 353e 361c b93c d68e ebbd a661 b3be
00000350: 9c08 40be 4b95 2dbe 1038 8dbe 0591 3c3e
00000360: 93c8 303e 297b 8bbe bfdd 003e 576c 06be
00000370: e561 eebd 755f 58be ce71 0d3e 82ba 74be
00000380: ef46 3d3e 82b9 48be bc4d 0e3d 1b10 d93d
00000390: 26ef 99be 7868 4ebd 9b4d 3bbd 10bf 82bd
000003a0: 5e43 0abd 3221 3bbe 4581 80be 0781 a53d
000003b0: c2b1 10be 9eed e23d aa8d 52be 6a33 cabd
000003c0: ceaf f83d 70a8 363e 3fa1 523c 7c46 9cbd
000003d0: a70f 233e 27c0 833b 7f19 503e 3434 9bbd
000003e0: b9f0 1fbe 7d80 9abe e1d2 0f3e 327a 2bbe
000003f0: 7c0a 06be c659 b83d 6533 5dbe 118d ddbd

classifier.5.bias f4 [10]
0.053630512 -0.12594533 0.060022805 -0.011744835 0.027348407 -0.028072037 -0.04579273 -0.07359881
0.06940155 0.08142469
00000000: abab 5b3d d0f7 00be 79da 753d 696d 40bc
00000010: c409 e03c 54f7 e5bc 2891 3bbd f9ba 96bd
00000020: 6622 8e3d fdc1 a63d

onnx::Conv_79 f4 [16, 1, 3, 3]
0.5282148 0.0015243234 -1.3276107 -0.08006766 -1.1528116 1.0136153 -0.857981 -0.2557666
0.2813231 -0.8966547 0.28041098 0.82474184 -0.5960795 1.26834 0.76611847 0.8429953
-1.0496469 -0.50806665 -0.8004869 -0.5609993 -1.0307975 0.15366285 0.17120044 0.4419579
0.44731474 0.46048754 0.23299682 0.5276 0.6603411 -0.560383 0.6745855 -0.75062025
-0.29871398 0.20666884 0.40611848 -1.0424442 -0.8929213 0.30496907 0.82192105 -1.3072586
0.1375001 -0.20928822 -0.15371542 -0.16552313 0.30153808 -0.4759108 -0.6961866 0.72721714
0.013883811 -0.5361154 0.11716729 -0.03987982 -0.8690142 0.22226785 0.5706104 0.1809924
-0.58433694 0.55253434 0.6670099 -0.08841429 -0.1782892 -0.11769586 0.21566448 0.81360775
-0.49632224 -0.6704915 -0.18565315 -0.07168457 -0.7680278 0.43031567 -1.2158546 0.5195147
-0.50333387 0.40396154 -0.6508967 0.5569472 0.3788492 0.88448995 -0.0745791 -0.2267675
0.50191665 -0.5827822 1.2124574 -0.0877452 0.17514974 -0.1436908 -0.68109304 0.80751467
0.7837626 -0.9413399 -0.5284949 -0.61362535 -0.218934 -0.09305933 -0.81468284 -0.0022017395
0.46687937 0.90575415 0.7368679 0.023583993 -0.8054751 -0.86689657 0.5915162 0.24400122
-0.7243259 0.5183919 0.6242748 0.13336107 0.8517333 -0.6446911 0.9949239 0.42433676
0.53408986 -0.68875134 -1.2331643 -0.18167774 -0.6439994 0.47327703 1.0778531 0.24281424
-0.81528616 -0.029800022 0.70991504 -1.2417679 0.36304295 -0.0028058616 0.14089988 0.6477004
-0.58881986 0.23010086 0.0040863557 -0.9258681 0.39973795 1.0339972 -0.20883551 1.1206336
-1.6136256 0.007543343 0.87526065 1.0418419 0.34937635 -0.53133535 0.48368376 -1.0189006
00000000: 1639 073f cecb c73a 26ef a9bf 83fa a3bd
00000010: 558f 93bf 25be 813f a5a4 5bbf d7f3 82be
00000020: 9509 903e 2a8b 65bf 0792 8f3e 4822 533f
00000030: ab98 18bf f758 a23f 5720 443f 8ace 573f
00000040: d45a 86bf a810 02bf b6ec 4cbf a69d 0fbf
00000050: 2cf1 83bf cb59 1d3e 2b4f 2f3e 4e48 e23e
00000060: 7006 e53e 06c5 eb3e b896 6e3e cb10 073f
00000070: 1d0c 293f 4375 0fbf a3b1 2c3f a628 40bf
00000080: 0af1 98be ffa0 533e c3ee cf3e d06e 85bf
00000090: 7e96 64bf e824 9c3e 6b69 523f 4054 a7bf
000000a0: d4cc 0c3e a74f 56be 9367 1dbe e57e 29be
000000b0: 3363 9a3e 95aa f3be 4939 32bf e72a 3a3f
000000c0: ed78 633c dc3e 09bf 67f5 ef3d 0659 23bd
000000d0: b777 5ebf 2f9a 633e 8613 123f 1256 393e
000000e0: 1b97 15bf e472 0d3f 29c1 2a3f 8d12 b5bd
000000f0: 7291 36be 870a f1bd 26d7 5c3e 9948 503f
00000100: f31d febe 55a5 2bbf dc1b 3ebe 5ccf 92bd
00000110: 789d 44bf 5652 dc3e 20a1 9bbf eafe 043f
00000120: 7dda 00bf 0cd4 ce3e 2ba1 26bf 1794 0e3f
00000130: 86f8 c13e ef6d 623f edbc 98bd bd35 68be
00000140: 9c7d 003f 3731 15bf ce31 9b3f c1b3 b3bd
00000150: 745a 333e ae23 13be 1d5c 2ebf 48b9 4e3f
00000160: aaa4 483f a7fb 70bf 714b 07bf 8d16 1dbf
00000170: 3c30 60be e495 bebd 0e8f 50bf 0f4b 10bb
00000180: d00a ef3e 81df 673f 60a3 3c3f 3833 c13c
00000190: 9e33 4ebf efec 5dbf 9b6d 173f 75db 793e
000001a0: 6c6d 39bf 55b5 043f 79d0 1f3f ce8f 083e
000001b0: 320b 5a3f 7a0a 25bf 55b3 7e3f ab42 d93e
000001c0: 1dba 083f 0252 30bf 54d8 9dbf bb09 3abe
000001d0: 25dd 24bf 5e51 f23e 17f7 893f 4ca4 783e
000001e0: 98b6 50bf 2d1f f4bc febc 353f 40f2 9ebf
000001f0: c4e0 b93e 8ce2 37bb 0f48 103e b2cf 253f
00000200: e6bc 16bf 8f9f 6b3e d6e6 853b b105 6dbf
00000210: 74aa cc3e 055a 843f fad8 55be ec70 8f3f
00000220: 498b cebf 262e f73b 1511 603f 135b 853f
00000230: 75e1 b23e 9805 08bf 66a5 f73e 566b 82bf

onnx::Conv_80 f4 [16]
-1.2881078 0.709279 -0.2968637 -0.22596753 -0.6777167 -1.1095325 0.65667486 -1.0560584
0.76972556 0.29843405 0.008607507 -0.10897283 -0.38777056 0.5298475 0.40699178 0.4603598
00000000: b7e0 a4bf 4f93 353f 85fe 97be 0864 67be
00000010: d77e 2dbf 2905 8ebf d81b 283f ec2c 87bf
00000020: bc0c 453f 59cc 983e 8006 0d3c 262d dfbd
00000030: dd89 c6be 16a4 073f 3a61 d03e 48b4 eb3e

onnx::Conv_82 f4 [16, 16, 3, 3]
0.05541558 -0.07316204 -0.05986449 -0.101997845 -0.028124789 -0.20131259 -0.048409265 -0.073263004
0.03567216 -0.24248384 0.01742185 0.12061726 -0.09012824 0.21859963 0.16954574 0.12974113
0.05035803 0.0681383 -0.04717452 0.08797178 0.047768462 -0.0021135726 -0.08030259 -0.08378527
-0.039274447 -0.012135218 -0.11926601 0.0072991163 0.0026334578 0.09901281 -0.09636558 -0.027831674
0.08838772 -0.0020249244 0.07721282 0.100577205 -0.084576435 -0.09265581 -0.1665584 -0.1505671
-0.14248586 -0.03205561 0.0012904418 -0.01503632 -0.26040873 -0.018725673 -0.19081731 0.04769269
-0.073265836 -0.017328408 0.08255006 0.007275293 -0.011282018 -0.1966191 -0.0639457 -0.2013168
-0.081340685 0.009622698 -0.1323142 0.03383196 0.014640883 0.08225073 0.08598371 -0.075099826
0.10290735 -0.1133519 -0.09609298 -0.09577622 -0.059737526 -0.109150946 -0.10309298 0.045836724
0.05850012 -0.11933089 0.101439156 -0.047818206 0.04990207 0.09975469 -0.04044949 -0.012362944
0.10372623 -0.12888451 0.019623157 0.0386514 -0.13993107 0.04784089 0.1100976 0.019847663
0.046476968 0.013110815 0.1318145 0.08487107 0.029085526 -0.012853265 -0.018875053 0.011504982
0.04849111 -0.07663884 0.012927072 0.0047657588 -0.14401808 -0.01702809 -0.020144291 -0.19198515
-0.17007397 -0.1759538 -0.17814866 -0.011284605 -0.13516054 0.03216218 -0.07602615 -0.06711371
-0.037024487 0.015248294 0.10688702 -0.023590755 0.019207245 -0.0009782632 0.027813653 -0.10555334
-0.21282455 -0.026985489 0.02413373 -0.15023299 -0.05443572 0.046500254 0.004296255 -0.09740566
-0.029659295 0.040249668 0.010967943 0.10019497 -0.03900072 0.023135712 -0.021245873 -0.05740823
-0.025626536 -0.0061154077 0.05478183 -0.021080676 -0.00961734 0.16519424 -0.13427764 0.001462008
-0.19139542 -0.10487235 -0.053110216 -0.14017558 -0.07393674 -0.17064373 -0.18188897 -0.15337174
-0.100842945 -0.0920187 -0.12963426 -0.19062233 0.080554225 -0.054205097 -0.046448886 -0.086451195
-0.04274191 -0.0378967 -0.077780984 0.009822278 0.022501126 -0.008059665 -0.14649165 -0.006061465
0.013703357 0.06072454 -0.06726414 0.04825674 -0.08071622 0.014942049 -0.012295889 -0.1140455
-0.051213227 -0.09129918 -0.05623289 -0.047319576 -0.0036612493 -0.02932496 -0.025788119 0.065737754
-0.055662315 -0.18601322 0.03851348 -0.09010112 -0.028241917 -0.038669042 -0.14712548 -0.07026757
0.043889355 -0.092722885 -0.14110841 0.11377163 -0.05050668 -0.08586638 0.10923906 0.002282042
-0.075541615 0.049081113 -0.024980338 0.023243904 0.042211335 0.07041069 0.057938527 0.09569632
-0.11984453 -0.048729025 -0.004355771 -0.08060132 0.017358728 -0.1760025 -0.11793328 -0.04937399
0.050310392 0.0696544 0.044987645 0.04142495 -0.0701642 0.061353598 -0.026491838 -0.06177819
0.03467368 -0.004107418 -0.0029513838 -0.09914545 -0.12386644 -0.01745562 -0.10803656 -0.0577927
0.04963142 0.08187193 -0.0400503 -0.047415867 0.06277136 -0.047680136 -0.010490228 -0.07315948
-0.13724914 -0.120903365 -0.095340446 0.1649499 0.07694941 0.09058227 0.12478921 -0.047919568
-0.020234158 0.11827939 0.041663688 0.1409566 -0.13466275 -0.0839969 0.0051358636 -0.061497595
00000000: 72fb 623d fbd5 95bd 7834 75bd 3fe4 d0bd
00000010: f565 e6bc e324 4ebe cb48 46bd ea0a 96bd
00000020: f91c 123d af4d 78be 44b8 8e3c 2f06 f73d
00000030: 2895 b8bd 95d8 5f3e 669d 2d3e dcda 043e
00000040: 3944 4e3d 188c 8b3d 123a 41bd 8c2a b43d
00000050: dda8 433d dd83 0abb af75 a4bd 9d97 abbd
00000060: 3ede 20bd cbd2 46bc bd41 f4bd 6d2d ef3b
00000070: 1796 2c3b 3ac7 ca3d 515b c5bd 40ff e3bc
00000080: 9f04 b53d 98b4 04bb c121 9e3d 6cfb cd3d
00000090: 6936 adbd 54c2 bdbd 498e 2abe 432e 1abe
000000a0: d0e7 11be be4c 03bd 0b24 a93a e65a 76bc
000000b0: 4b54 85be 9566 99bc 9d65 43be 6959 433d
000000c0: 660c 96bd 4ef4 8dbc 0110 a93d 9565 ee3b
000000d0: 37d8 38bc 8456 49be f7f5 82bd fe25 4ebe
000000e0: f295 a6bd 85a8 1d3c 607d 07be 6293 0a3d
000000f0: 50e0 6f3c 1273 a83d 3a18 b03d f0cd 99bd
00000100: 17c1 d23d 0a25 e8bd 65cc c4bd 5326 c4bd
00000110: 56af 74bd 888a dfbd 6a22 d3bd 4abf 3b3d
00000120: d29d 6f3d c163 f4bd 55bf cf3d 06dd 43bd
00000130: 1d66 4c3d 304c cc3d 5dae 25bd f28d 4abc
00000140: 6b6e d43d 4dfa 03be bec0 a03c ee50 1e3d
00000150: 174a 0fbe cff4 433d da7a e13d 9197 a23c
00000160: a25e 3e3d bece 563c 61fa 063e e2d0 ad3d
00000170: c544 ee3c 8096 52bc db9f 9abc 647f 3c3c
00000180: 9d9e 463d d3f4 9cbd 12cc 533c 152a 9c3b
00000190: 7a79 13be 7e7e 8bbc a405 a5bc c197 44be
000001a0: df27 2ebe 3c2d 34be 9a6c 36be 10e3 38bc
000001b0: 8667 0abe 7dbc 033d 99b3 9bbd ea72 89bd
000001c0: fda6 17bd fbd3 793c 95e7 da3d 6641 c1bc
000001d0: 8358 9d3c 1139 80ba 75d9 e33c 592c d8bd
000001e0: aeee 59be ac10 ddbc 1ab4 c53c add6 19be
000001f0: fdf7 5ebd 0d77 3e3d 99c7 8c3b 9e7c c7bd
00000200: 0df8 f2bc d6dc 243d e3b2 333c 0533 cd3d
00000210: 38bf 1fbd 1b87 bd3c d30b aebc e424 6bbd
00000220: beee d1bc c263 c8bb ea62 603d 62b1 acbc
00000230: 0c92 1dbc ae28 293e 1480 09be d9a0 bf3a
00000240: 29fd 43be 51c7 d6bd 198a 59bd 308a 0fbe
00000250: 256c 97bd 3bbd 2ebe 1a41 3abe 7b0d 1dbe
00000260: bf86 cebd 4d74 bcbd d8be 04be 8032 43be
00000270: 9df9 a43d 2a06 5ebd 3041 3ebd 530d b1bd
00000280: 2412 2fbd 9239 1bbd a34b 9fbd 9fed 203c
00000290: 4854 b83c af0c 04bc e801 16be 419f c6bb
000002a0: 0c84 603c 4cba 783d c8c1 89bd dca8 453d
000002b0: 8c4e a5bd 7fcf 743c b274 49bc b090 e9bd
000002c0: f6c4 51bd 11fb babd 7554 66bd 2cd2 41bd
000002d0: 92f1 6fbb e63a f0bc 9b41 d3bc 84a1 863d
000002e0: 2bfe 63bd 407a 3ebe 50c0 1d3d f086 b8bd
000002f0: 985b e7bc 6e63 1ebd 10a8 16be 72e8 8fbd
00000300: 53c5 333d 7fe5 bdbd b97e 10be 1a01 e93d
00000310: 18e0 4ebd b6da afbd bab8 df3d 508e 153b
00000320: 90b5 9abd 4709 493d 91a3 ccbc 006a be3c
00000330: cbe5 2c3d 7b33 903d f350 6d3d 6ffc c33d
00000340: 0d71 f5bd 1698 47bd dbba 8ebb 4e12 a5bd
00000350: e433 8e3c 003a 34be 0187 f1bd 623c 4abd
00000360: 4512 4e3d f7a6 8e3d f744 383d 35ad 293d
00000370: 40b2 8fbd e94d 7b3d 6905 d9bc 210b 7dbd
00000380: fd05 0e3d 8597 86bb 016c 41bb c50c cbbd
00000390: b0ad fdbd 17ff 8ebc 4642 ddbd 0ab8 6cbd
000003a0: 514a 4b3d 78ac a73d c90b 24bd 2437 42bd
000003b0: 458e 803d 3f4c 43bd 35df 2bbc a3d4 95bd
000003c0: 0a8b 0cbe 2f9c f7bd da41 c3bd a0e8 283e
000003d0: a797 9d3d 3283 b93d 7c91 ff3d 4f47 44bd
000003e0: 1bc2 a5bc 773c f23d 8ba7 2a3d ed56 103e
000003f0: 08e5 09be 9106 acbd bf4a a83b e7e4 7bbd

onnx::Conv_83 f4 [16]
1.1070809 1.124031 0.89237857 1.3881627 2.7850306 0.40518367 0.519597 1.0664947
0.5251363 1.4600654 -0.45819175 1.9246082 0.70292634 1.0470676 2.2216005 1.442273
00000000: d4b4 8d3f 3fe0 8f3f ec72 643f 51af b13f
00000010: f13d 3240 3c74 cf3e 4f04 053f e682 883f
00000020: 556f 063f 6ce3 ba3f 1c98 eabe 9059 f63f
00000030: fbf2 333f 5006 863f b42e 0e40 679c b83f

onnx::Conv_85 f4 [32, 16, 3, 3]
0.011107915 0.00019035487 0.0011192894 0.02607761 -0.014161579 -0.015424253 -0.010101589 0.078613944
0.020386245 0.040927984 -0.01163447 0.006242872 -0.014565468 -0.017684 -0.02662258 -0.08157743
-0.08475811 -0.08541376 0.045089632 0.0032675283 0.0027029347 0.0027759958 0.042458154 0.064420156
-0.058456745 -0.01664053 -0.052525677 -0.05042835 -0.0725982 -0.109067954 -0.06432484 -0.058998276
-0.048200715 0.0091636265 -0.02477126 -0.07713573 -0.009964031 -0.016803088 0.009002813 0.059043504
0.0592264 0.022343118 0.033380765 -0.024295725 0.003967253 -0.05892324 -0.047954384 -0.007689692
0.055184737 0.02822965 -0.05278397 0.04928221 -0.0437882 -0.116524205 0.03970234 0.033882994
0.02252055 0.013308014 -0.010518249 -0.012341481 -0.13717298 -0.066120215 -0.010346867 -0.016841704
0.024174055 -0.061542008 -0.026174314 -0.045919567 -0.08622854 -0.08678627 -0.04016626 -0.0096513145
-0.02262141 -0.060086504 0.020530477 -0.03210892 -0.021171594 -0.03961765 0.06386767 0.0070184036
-0.05990892 -0.02243667 -0.06101611 -0.0665648 0.01741146 -0.040562473 -0.10229582 -0.037727945
-0.08535748 0.0026950263 0.020052765 0.0056448677 0.048325438 0.018890355 0.034526087 -0.03313448
-0.07044037 -0.08700001 -0.06958657 0.018123787 -0.046777997 -0.023531452 0.0022422909 0.06230269
-0.039919052 0.05747596 -0.056314386 -0.05050557 -0.0148265 -0.037623722 0.03304522 0.062910646
0.009881568 0.044060234 0.011377295 -0.027340434 0.014939141 0.010354609 0.001425965 -0.01887695
0.041910723 -0.040289905 -0.008700159 -0.007878606 -2.3057844e-05 0.012580456 -0.015350798 0.03291058
-0.008350391 0.026973883 0.016334087 0.026094088 -0.049077056 -0.05443631 -0.06403922 0.04173212
0.03285131 -0.024868174 0.041730035 -0.013010491 -0.030132689 0.071232356 0.0119078215 -0.042366296
-0.032927323 0.06338751 0.03756463 -0.10349228 0.018711025 -0.008426309 -0.042509634 -0.020951547
0.095290095 -0.004642572 -0.04024189 -0.046956915 0.003137209 -0.06826664 0.019488085 -0.004510365
0.023398362 0.02406148 -0.0356757 -0.020203065 0.00951595 0.02760225 0.064842686 -0.06460507
-0.017706815 0.0554754 -0.005751146 0.034745645 -0.045720335 -0.0005859491 -0.09048058 0.056828003
-0.0068296795 0.036338624 0.053101193 -0.054564856 -0.07878307 0.025019841 0.02775422 -0.035051517
0.036825456 0.038666006 -0.008237961 -0.03684088 0.032752596 -0.064363524 -0.061651886 0.051326115
-0.23149806 -0.16804314 -0.080383524 -0.096904635 -0.03154701 -0.020585943 -0.017750027 -0.06971953
-0.10241955 0.05012982 -0.04205742 -0.0074414993 0.09690149 0.08171482 0.054017328 0.029741473
-0.013577251 0.044021823 -0.06516174 -0.090580456 0.05003132 0.019246284 0.069462545 0.033381317
-0.06477043 0.004320441 0.096287824 -0.18534645 -0.10982805 0.03360542 -0.24932946 -0.13994631
0.054509766 0.01338279 -0.10976317 -0.0058378894 -0.046405423 0.016679639 -0.02570786 0.014553909
0.029608771 0.010596152 -0.041066587 -0.00948666 0.030104075 -0.06915428 -0.053135697 -0.031601634
0.07316248 0.07063742 -0.08078886 -0.06743559 -0.012109658 0.09985047 -0.13836046 -0.09489961
0.008117137 -0.035155002 -0.07230453 0.020066358 0.0041760225 0.056141596 0.022559037 -0.0075960783
00000000: f9fd 353c ff99 4739 1fb5 923a b6a0 d53c
00000010: f805 68bc 02b6 7cbc 2381 25bc 5900 a13d
00000020: 0e01 a73c 1aa4 273d 819e 3ebc 0291 cc3b
00000030: 00a4 6ebc 09de 90bc 9917 dabc 1112 a7bd
00000040: a995 adbd 69ed aebd e8af 383d 0724 563b
00000050: b823 313b 7bed 353b 9ae8 2d3d b7ee 833d
00000060: 5770 6fbd b951 88bc 2a25 57bd f58d 4ebd
00000070: 5dae 94bd 055f dfbd bebc 83bd 2da8 71bd
00000080: 1d6e 45bd 0923 163c 19ed cabc 56f9 9dbd
00000090: 2d40 23bc a1a6 89bc 8980 133c 9ad7 713d
000000a0: 6297 723d ea08 b73c 45ba 083d d407 c7bc
000000b0: bbff 813b 7f59 71bd d16b 44bd d0f9 fbbb
000000c0: 6409 623d de41 e73c 0134 58bd 25dc 493d
000000d0: 415b 33bd 3ea4 eebd ec9e 223d e5c8 0a3d
000000e0: 047d b83c db09 5a3c bc54 2cbc ec33 4abc
000000f0: 1377 0cbe 096a 87bd e885 29bc 9df7 89bc
00000100: ab08 c63c 7913 7cbd 846b d6bc 2816 3cbd
00000110: 9798 b0bd 00bd b1bd 6085 24bd 8c20 1ebc
00000120: 8950 b9bc 441d 76bd 882f a83c a584 03bd
00000130: 0d70 adbc 1e46 22bd 0ecd 823d a3fa e53b
00000140: 0e63 75bd 1bcd b7bc 07ec 79bd 2053 88bd
00000150: 7aa2 8e3c d624 26bd 7980 d1bd 9e88 1abd
00000160: e7cf aebd 0a9f 303b b245 a43c 95f8 b83b
00000170: e5f0 453d f2bf 9a3c 3a6b 0d3d 05b8 07bd
00000180: 0a43 90bd 102d b2bd 6783 8ebd 5678 943c
00000190: 499a 3fbd 08c5 c0bc 66f3 123b 1b31 7f3d
000001a0: 2982 23bd ea6b 6b3d eaa9 66bd eede 4ebd
000001b0: d9ea 72bc 551b 1abd 6d5a 073d 4cd7 803d
000001c0: 4de6 213c 8178 343d d567 3a3c 0cf9 dfbc
000001d0: 4dc3 743c 61a6 293c 72e7 ba3a d5a3 9abc
000001e0: 94aa 2b3d 0707 25bd 1d8b 0ebc 4515 01bc
000001f0: 586c c1b7 421e 4e3c ea81 7bbc 3fcd 063d
00000200: 14d0 08bc 55f8 dc3c 10cf 853c 45c3 d53c
00000210: 0605 49bd 9cf8 5ebd ff26 83bd 4def 2a3d
00000220: 188f 063d 57b8 cbbc 1ded 2a3d f429 55bc
00000230: d4d8 f6bc 45e2 913d 0619 433c 4888 2dbd
00000240: cdde 06bd 50d1 813d 5fdd 193d c3f3 d3bd
00000250: dd47 993c 800e 0abc 951e 2ebd 94a2 abbc
00000260: 7427 c33d b720 98bb aed4 24bd e555 40bd
00000270: a299 4d3b 61cf 8bbd 7aa5 9f3c afcb 93bb
00000280: ecad bf3c 951c c53c af20 12bd e680 a5bc
00000290: cae8 1b3c 1d1e e23c 3ecc 843d aa4f 84bd
000002a0: e20d 91bc 2c3a 633d 1c74 bcbb 7351 0e3d
000002b0: 3f45 3bbd 619a 19ba e24d b9bd 7bc4 683d
000002c0: 81cb dfbb cfd7 143d a380 593d 667f 5fbd
000002d0: 0559 a1bd 69f6 cc3c d15c e33c 2e92 0fbd
000002e0: 4ad6 163d 3f60 1e3d 83f8 06bc 76e6 16bd
000002f0: 9627 063d 06d1 83bd b086 7cbd 553b 523d
00000300: d40d 6dbe 8013 2cbe 1ea0 a4bd f075 c6bd
00000310: 7037 01bd daa3 a8bc 8168 91bc 1dc9 8ebd
00000320: 57c1 d1bd ed54 4d3d 6744 2cbd d2d7 f3bb
00000330: 4a74 c63d 195a a73d 4641 5d3d 64a4 f33c
00000340: 1e73 5ebc 3a50 343d 8573 85bd 3f82 b9bd
00000350: a4ed 4c3d 62aa 9d3c 6142 8e3d d9ba 083d
00000360: 5ca6 84bd 7c92 8d3b 8d32 c53d 76cb 3dbe
00000370: 87ed e0bd d6a5 093d 3950 7fbe 164e 0fbe
00000380: a245 5f3d 7d43 5b3c 83cb e0bd c44b bfbb
00000390: 9d13 3ebd bda3 883c 4a99 d2bc 8573 6e3c
000003a0: 188e f23c 7c9b 2d3c 7035 28bd f06d 1bbc
000003b0: d29c f63c c2a0 8dbd d1a4 59bd b770 01bd
000003c0: 36d6 953d 5aaa 903d a174 a5bd ac1b 8abd
000003d0: 9667 46bc 677e cc3d 5dae 0dbe ba5a c2bd
000003e0: bdfd 043c b1fe 0fbd 6614 94bd 3462 a43c
000003f0: 04d7 883b bbf4 653d bbcd b83c 86e8 f8bb

onnx::Conv_86 f4 [32]
0.5313451 0.51406103 0.14600706 0.3144205 0.5071067 0.27408278 0.569598 0.23129421
0.6802477 0.2549985 0.26006448 0.5458154 0.6767689 -0.9225508 0.5855739 -0.23941414
0.44092566 0.65005946 0.21545431 -0.11372962 0.39339215 -0.38331345 -0.56732404 0.2124359
0.36649236 0.23622862 -0.44122463 0.35400373 -0.49070972 -0.20666206 0.34867373 0.043328747
00000000: 3c06 083f 8199 033f e082 153e b9fb a03e
00000010: bfd1 013f 9454 8c3e 2dd1 113f 64d8 6c3e
00000020: b724 2e3f 2a8f 823e 2c27 853e 8fba 0b3f
00000030: ba40 2d3f 4a2c 6cbf 2ce8 153f fb28 75be
00000040: 02c1 e13e 4c6a 263f 0ea0 5c3e 13eb e8bd
00000050: b26a c93e a941 c4be 263c 11bf cc88 593e
00000060: e3a4 bb3e eae5 713e 32e8 e1be fa3f b53e
00000070: 4e3e fbbe 389f 53be 5d85 b23e 7c79 313d
